TorchPractice/cnn.pth (torch, 77959 bytes, 10 tensors)

conv1.weight f4 [10, 3, 5, 5]
-0.00059158914 -0.10152775 0.09093765 -0.06418608 -0.10941893 -0.06293634 -0.0036746059 -0.011444191
0.054031923 0.047876626 -0.11129241 -0.11420925 -0.020790769 -0.07165262 0.11762191 0.08795292
-0.096050166 -0.05590895 -0.10695505 0.031823713 0.066224724 -0.039585102 0.09081141 0.05490973
0.11961943 -0.0580523 -0.02700097 -0.13267227 -0.09460467 -0.1389746 -0.03765687 0.06737173
-0.06470364 -0.053647235 -0.10812262 -0.008886481 -0.14648241 -0.12318927 0.043841574 0.06611581
-0.022125147 -0.01606919 -0.040583562 0.031209597 -0.008433063 -0.12070931 -0.009363076 0.08682449
0.104179814 0.08367247 -0.104496606 -0.1568079 0.046284318 -0.065526165 -0.15727247 -0.07553703
0.032955326 -0.1263117 0.008786349 0.0031075196 -0.11667069 0.046537623 -0.043567467 -0.11084094
0.07472405 -0.119098976 0.013310216 -0.13455841 0.058794122 -0.11278649 -0.12232891 -0.036412597
-0.029090896 0.012848897 -0.119040206 -0.099917926 0.013813668 -0.07254461 0.101274714 -0.033745218
0.12837864 -0.043757122 0.12301049 -0.038531497 0.05142099 0.0257396 -0.016543997 0.019575486
0.013672841 -0.012583785 0.07007771 0.027535552 0.06524973 0.015983285 -0.096190415 -0.037219107
0.04445087 0.079240836 -0.052775286 0.0030153454 0.113489434 0.06092106 0.14194275 0.04304645
0.142971 -0.031925593 0.011328097 0.1405036 0.04545622 0.08574725 0.10420587 0.1511782
0.14562169 0.09118515 0.121641904 -0.039138958 -0.005738348 -0.07658335 0.13582373 0.03991663
-0.028948432 -0.08510557 -0.0993835 -0.09344012 -0.06987629 0.04947624 0.1544212 0.14420968
0.1249382 0.19157752 0.048748195 -0.006674649 0.10174104 0.18059328 0.06409105 0.08406512
0.00046058733 0.026976475 0.1449576 0.02863464 0.09880598 -0.0057330285 0.11611068 -0.04105067
0.06506094 -0.01286639 0.11204755 0.12155043 0.080973126 -0.05596643 0.050115798 -0.028660212
-0.07379772 0.0047718044 -0.0142243635 -0.015135857 0.03199277 0.031124894 0.07484464 -0.08659825
0.08813867 -0.051622942 0.028069157 0.06228615 -0.10713122 0.006356855 -0.00709744 0.045836806
-0.08805307 0.10909386 -0.022495607 0.08752229 -0.10505747 0.03611071 0.02517627 0.016373038
-0.073118426 -0.1272141 -0.08939655 -0.014175841 0.04642229 0.005634564 -0.016990125 0.08935225
-0.11674183 -0.027457554 0.10778814 0.07263408 -0.07564053 -0.04053334 0.038899228 0.08092536
-0.044184815 -0.10775874 0.033063114 -0.06476722 -0.002245011 -0.06747416 0.02929302 -0.09786434
-0.15968981 -0.09352669 -0.034323853 -0.13488552 -0.104112476 -0.050459567 -0.028708814 -0.07403551
0.0116802445 -0.085912146 -0.11071634 -0.119437836 -0.031965245 -0.112302914 -0.16119878 -0.11103241
0.05368203 -0.17119275 -0.20696728 -0.13640344 0.05088836 -0.16556469 -0.093274914 -0.029544909
-0.06615232 0.096660376 0.075819604 -0.00043987297 0.0555756 -0.015477784 0.09915375 -0.06291125
0.049164914 0.019175109 0.047850773 -0.10254952 0.030460255 0.0643483 -0.000118838594 0.06319273
-0.125926 -0.06053581 -0.021356944 -0.06448969 -0.025056908 -0.04761851 0.09178464 -0.11343489
0.020154767 0.07011746 -0.016381763 -0.014969484 0.08962284 -0.09361465 0.051966883 -0.07864333
00000000: e014 1bba c8ed cfbd 853d ba3d fe73 83bd
00000010: 0817 e0bd c5e4 80bd a8d1 70bb 6b80 3bbc
00000020: 9450 5d3d 481a 443d 46ed e3bd 8ae6 e9bd
00000030: 6751 aabc 9cbe 92bd c2e3 f03d a920 b43d
00000040: f3b5 c4bd c800 65bd 400b dbbd 9559 023d
00000050: d4a0 873d fd23 22bd 55fb b93d 06e9 603d
00000060: 08fb f43d 40c8 6dbd 2331 ddbc 3ddb 07be
00000070: 18c0 c1bd 5c4f 0ebe 173e 1abd 31fa 893d
00000080: 5883 84bd 34bd 5bbd 646f ddbd 9a98 11bc
00000090: 7cff 15be a84a fcbd 3993 333d ba67 873d
000000a0: cc3f b5bc 89a3 83bc f33a 26bd 45ab ff3c
000000b0: d42a 0abc 7136 f7bd 9667 19bc 0ad1 b13d
000000c0: 3a5c d53d 795c ab3d 5102 d6bd 4092 20be
000000d0: a094 3d3d 9532 86bd 090c 21be 29b3 9abd
000000e0: 2afc 063d db57 01be 9ef4 0f3c 87a7 4b3b
000000f0: 0bf1 eebd 3c9e 3e3d cd73 32bd 9300 e3bd
00000100: ec08 993d 2aea f3bd 1813 5a3c aec9 09be
00000110: 1bd2 703d 9afc e6bd 9487 fabd 6025 15bd
00000120: 0850 eebc 2e84 523c 5acb f3bd c5a1 ccbd
00000130: b952 623c 4592 94bd 1e69 cf3d 6d38 0abd
00000140: b175 033e ab3a 33bd ecec fb3d 34d3 1dbd
00000150: d19e 523d dbdb d23c 4787 87bc c55c a03c
00000160: 0d04 603c 382c 4ebc e784 8f3d 3d92 e13c
00000170: a7a1 853d 61ef 823c 7bff c4bd 1073 18bd
00000180: 1e12 363d 0549 a23d e62a 58bd 1a9d 453b
00000190: 266d e83d 5d88 793d 7159 113e 7951 303d
000001a0: fd66 123e 69c4 02bd 7c99 393c 2de0 0f3e
000001b0: 4d30 3a3d 419c af3d e369 d53d 75ce 1a3e
000001c0: da1d 153e 48bf ba3d 641f f93d 2c50 20bd
000001d0: c008 bcbb bbd7 9cbd 6015 0b3e 9f7f 233d
000001e0: 4325 edbc d44b aebd 9489 cbbd 895d bfbd
000001f0: 4d1b 8fbd 99a7 4a3d 9720 1e3e b4ab 133e
00000200: 99df ff3d e62c 443e 30ac 473d 04b7 dabb
00000210: 9b5d d03d 72ed 383e 2b42 833d 552a ac3d
00000220: fc7a f139 c5fd dc3c c46f 143e 3193 ea3c
00000230: ca5a ca3d 21dc bbbb 70cb ed3d bf24 28bd
00000240: ac3e 853d 8dcd 52bc 3079 e53d 6fef f83d
00000250: 3dd5 a53d 0e3d 65bd 3946 4d3d d2c8 eabc
00000260: 4223 97bd cc5c 9c3b 4e0d 69bc 63fc 77bc
00000270: da0a 033d a2f9 fe3c 2648 993d 6c5a b1bd
00000280: 0c82 b43d 9472 53bd 4af1 e53c c31f 7f3d
00000290: 9d67 dbbd 2a4d d03b a491 e8bb 60bf 3b3d
000002a0: 2b55 b4bd 9a6c df3d b548 b8bc e33e b33d
000002b0: 5f28 d7bd d3e8 133d 773e ce3c c020 863c
000002c0: 1dbf 95bd 6a44 02be 8a15 b7bd c941 68bc
000002d0: 4d25 3e3d 26a2 b83b e02e 8bbc 50fe b63d
000002e0: 5716 efbd aaee e0bc 07c0 dc3d 2dc1 943d
000002f0: 6ce9 9abd 4a06 26bd cc54 1f3d 32bc a53d
00000300: 23fb 34bd 9db0 dcbd 306d 073d ada4 84bd
00000310: 0921 13bb e42f 8abd eaf7 ef3c 196d c8bd
00000320: ba85 23be ec8a bfbd 2b97 0cbd 6e1f 0abe
00000330: ec38 d5bd b1ae 4ebd bf2e ebbc ee9f 97bd
00000340: 7f5e 3f3c b5f2 afbd 40bf e2bd d39b f4bd
00000350: fded 02bd 12ff e5bd 4b11 25be f664 e3bd
00000360: b0e1 5b3d 274d 2fbe 3bef 53be 58ad 0bbe
00000370: 5070 503d ca89 29be eb06 bfbd 2a08 f2bc
00000380: de7a 87bd e0f5 c53d 4f47 9b3d c09e e6b9
00000390: 3ea3 633d 8896 7dbc 1f11 cb3d 9dd7 80bd
000003a0: 2661 493d 1e15 9d3c 2cff 433d 7c05 d2bd
000003b0: c987 f93c 0bc9 833d fc38 f9b8 316b 813d
000003c0: bff2 00be 66f4 77bd c2f4 aebc 2c13 84bd
000003d0: 2544 cdbc a00b 43bd 96f9 bb3d 8d50 e8bd
000003e0: 9c1b a53c be99 8f3d 0c33 86bc 9142 75bc
000003f0: 2e8c b73d 0ab9 bfbd 3adb 543d c10f a1bd

conv1.bias f4 [10]
0.09800016 0.17032039 0.26214018 0.012668647 -0.010562806 0.10073346 0.10582206 0.15799797
-0.0118046235 -0.063552305
00000000: 4fb4 c83d 7868 2e3e 3d37 863e 2890 4f3c
00000010: 9f0f 2dbc 584d ce3d 3cb9 d83d 38ca 213e
00000020: 2e68 41bc b627 82bd

conv2.weight f4 [20, 10, 5, 5]
0.02442252 0.058027692 0.058882073 -0.039006952 -0.0022752297 0.0677265 -0.01236437 -0.007607101
-0.05647477 0.044688437 -0.01894838 0.05148483 0.056616157 -0.029531918 -0.034201495 -0.06744708
-0.019032296 -0.05135609 0.043089937 0.055113837 -0.041046895 0.044381075 -0.057850167 -0.06306874
-0.022919342 -0.06160063 -0.026245793 -0.018321633 -0.02745983 0.0026976387 0.018153243 0.01757328
0.04992913 -0.006675268 0.021182723 -0.0059966454 0.020518959 -0.054321174 -0.0065257903 0.0076233638
0.039758425 -0.016850714 -0.04580466 -0.015583313 -0.050482705 0.059102997 0.04790569 -0.031179346
0.06527866 0.0194694 0.04435226 0.0072472245 0.07193313 0.07063766 -0.037875257 0.022341952
-0.0034440649 0.014550634 -0.021449775 0.01278973 -0.0558843 0.042353515 -0.012286268 -0.023680018
0.05015537 0.027231827 0.012268114 0.012813701 -0.023489576 0.026538992 -0.05119753 -0.0023645835
-0.01099607 -0.008068493 0.032989837 -0.026845803 0.008782729 -0.048401196 0.065129526 0.001818259
0.00786391 -0.03796202 0.05864181 0.0517884 0.042057127 0.057377912 -0.052463885 -0.025558986
0.0038245195 -0.040200517 -0.01125232 0.051162083 0.027508494 -0.016222268 0.011921835 0.034790315
-0.0095227 0.059141185 -0.0497555 0.027218606 0.05429693 0.0040923622 -0.030984875 -0.021441584
-0.035745647 -0.061235186 0.03965282 0.06425531 0.03608452 0.042348955 0.016746776 -0.053714346
0.035118837 -0.019602073 0.044602733 0.012790834 0.040481057 -0.008851241 0.01613709 0.04982639
0.026681647 -0.0012467812 0.020227147 0.03663024 0.035694204 0.033480182 0.008887247 0.038378667
0.009516854 0.015720172 -0.02115798 -0.04853416 0.013445835 0.0071053393 -0.027985109 0.054102678
-0.033385705 0.029360777 0.06264341 -0.051890254 -0.06283131 -0.033237234 -0.008734026 0.0040322803
-0.015008599 -0.0110571105 0.025104968 0.044119515 -0.013759514 -0.05116701 0.0040424727 0.0064663924
0.028635014 0.052488644 -0.05472128 0.05706221 -0.022639992 -0.01721642 0.025622059 -0.030107314
0.051115915 -0.025167612 -0.056242112 0.012880943 0.017766386 0.03584826 -0.044014342 0.009427046
-0.01774391 -0.054175667 0.0022344834 -0.032429215 -0.0067969984 0.04153994 -0.027907409 -0.04857108
-0.049810477 0.039887246 0.032223206 0.05149926 0.047818117 -0.038020212 0.034667697 0.0052887816
0.050156653 -0.022937417 -0.060474366 0.031748135 0.033115476 0.011218715 0.02836038 0.010299728
-0.03513608 0.0053120577 -0.014897723 -0.02481518 -0.028384889 -0.026152514 0.019536473 0.047394983
0.05229052 -0.009807292 -0.005326625 0.007342417 0.0434095 -0.039319504 -0.04120709 -0.03336305
-0.030707436 -0.012558603 0.054384347 -0.014177172 0.04251339 -0.05273583 -0.026573913 -0.013999169
0.030351529 -0.056760166 -0.05548931 -0.03310382 -0.06253669 -0.045212314 0.03286342 0.054538004
-0.056024972 -0.046905965 -0.059580326 -0.029081943 0.017587908 0.0056683635 -0.05201704 0.037918124
-0.03756405 -0.03855153 -0.039887767 -0.03434888 -0.0073437565 0.0031150514 -0.052578885 0.05061455
-0.05783895 0.018000316 -0.005996328 0.025840893 -0.0541983 -0.021738622 0.023541922 -0.012225517
-0.060391374 -0.024498772 0.0074606845 0.044287972 0.0033572458 0.0066886246 0.037565403 -0.04908403
00000000: bd11 c83c 72ae 6d3d 542e 713d c1c5 1fbd
00000010: 051c 15bb 31b4 8a3d ed93 4abc fd44 f9bb
00000020: 1752 67bd 390b 373d a239 9bbc c2e1 523d
00000030: 58e6 673d ecec f1bc de16 0cbd b221 8abd
00000040: 9ee9 9bbc c35a 52bd 137f 303d 0cbf 613d
00000050: ca20 28bd eec8 353d 4cf4 6cbd 2f2a 81bd
00000060: 58c1 bbbc f150 7cbd 6b01 d7bc 4017 96bc
00000070: 70f3 e0bc deca 303b 1cb6 943c d7f5 8f3c
00000080: 7d82 4c3d 35bc dabb 6487 ad3c 827f c4bb
00000090: 6017 a83c e17f 5ebd 4cd6 d5bb 69cd f93b
000000a0: bbd9 223d 820a 8abc ab9d 3bbd 2751 7fbc
000000b0: f4c6 4ebd fc15 723d c238 443d d46b ffbc
000000c0: d1b0 853d 4b7e 9f3c b7aa 353d 207a ed3b
000000d0: ad51 933d 7aaa 903d 1623 1bbd 7806 b73c
000000e0: d2b5 61bb c865 6e3c 70b7 afbc 048c 513c
000000f0: f0e6 64bd e17a 2d3d 584c 49bc 99fc c1bc
00000100: b86f 4d3d 4815 df3c 3300 493c 8ff0 513c
00000110: 366d c0bc 4d68 d93c 80b4 51bd 21f7 1abb
00000120: dc28 34bc b631 04bc 5a20 073d bbeb dbbc
00000130: 6fe5 0f3c 5540 46bd a162 853d a652 ee3a
00000140: a1d7 003c 107e 1bbd 6532 703d 1320 543d
00000150: 1844 2c3d 1a05 6b3d 5fe4 56bd 1461 d1bc
00000160: caa4 7a3b 4ca9 24bd a75b 38bc 558f 513d
00000170: 7e59 e13c 90e4 84bc cd53 433c 4a80 0e3d
00000180: 1905 1cbc 073e 723d 6ccc 4bbd 8ef9 de3c
00000190: 7566 5e3d 3919 863b fed3 fdbc 43a6 afbc
000001a0: 076a 12bd bfd1 7abd ff6a 223d 4a98 833d
000001b0: 5dcd 133d 1976 2d3d 8930 893c 9303 5cbd
000001c0: c5d8 0f3d 8794 a0bc 5bb1 363d a590 513c
000001d0: 77cf 253d cc04 11bc ee31 843c c216 4c3d
000001e0: 7893 da3c 096b a3ba 67b3 a53c 9709 163d
000001f0: 1634 123d 8422 093d d19b 113c f332 1d3d
00000200: 94ec 1b3c 97c7 803c 8053 adbc c1cb 46bd
00000210: eb4b 5c3c e8d3 e83b 0741 e5bc c59a 5d3d
00000220: 73bf 08bd 0386 f03c 304b 803d e08a 54bd
00000230: b4ad 80bd c423 08bd 2919 0fbc 3821 843b
00000240: a0e6 75bc e228 35bc efa8 cd3c aab6 343d
00000250: 966f 61bc 8094 51bd b876 843b 08e4 d33b
00000260: fa93 ea3c 55fe 563d 6c23 60bd 10ba 693d
00000270: 8177 b9bc 7309 8dbc 5ae5 d13c 9da3 f6bc
00000280: ec5e 513d 4f2c cebc 215e 66bd 970a 533c
00000290: d08a 913c a0d5 123d 6248 34bd e673 1a3c
000002a0: ad5b 91bc 4ee7 5dbd 6970 123b 7fd4 04bd
000002b0: 5bb9 debb c925 2a3d 149e e4bc 78f2 46bd
000002c0: 1206 4cbd cf60 233d 7bfc 033d e3f0 523d
000002d0: eedc 433d 15bb 1bbd b7ff 0d3d 844d ad3b
000002e0: 1071 4d3d 40e7 bbbc f8b3 77bd 550a 023d
000002f0: 18a4 073d b4ce 373c 0754 e83c 31c0 283c
00000300: daea 0fbd c510 ae3b 9415 74bc 3449 cbbc
00000310: 6d87 e8bc cc3d d6bc f40a a03c 3e21 423d
00000320: 962e 563d c4ae 20bc f88a aebb a898 f03b
00000330: 29ce 313d 7d0d 21bd c4c8 28bd b2a7 08bd
00000340: 298e fbbc 99c2 4dbc 1fc2 5e3d 5f47 68bc
00000350: 8522 2e3d 8701 58bd 89b1 d9bc c55c 65bc
00000360: c5a3 f83c 597d 68bd c248 63bd df97 07bd
00000370: 3c13 80bd 8c30 39bd cb9b 063d 3e63 5f3d
00000380: 717a 65bd 7820 40bd 800a 74bd 413d eebc
00000390: 8414 903c aebd b93b d20f 55bd 0950 1b3d
000003a0: c3dc 19bd 36e8 1dbd 5b61 23bd 69b1 0cbd
000003b0: e5a3 f0bb e425 4c3b f55c 57bd 3451 4f3d
000003c0: 89e8 6cbd 6675 933c d87c c4bb 48b0 d33c
000003d0: 09ff 5dbd 3215 b2bc fdda c03c 894d 48bc
000003e0: f25c 77bd a6b1 c8bc c278 f43b 4e67 353d
000003f0: 3d05 5c3b 402c db3b 2ede 193d 560c 49bd

conv2.bias f4 [20]
0.031722344 -0.02594297 0.009768782 0.0163523 -0.1027107 -0.03735981 0.032118097 0.009717886
-0.011404103 0.0664961 0.082912944 0.02456454 0.06555045 -0.023040533 -0.01647539 -0.015109748
-0.059313416 -0.05315558 0.065303475 0.040376343
00000000: 4aef 013d 5a86 d4bc 3e0d 203c 42f5 853c
00000010: fd59 d2bd 9a06 19bd 448e 033d c537 1f3c
00000020: 46d8 3abc 1b2f 883d 43ce a93d 933b c93c
00000030: 503f 863d 80bf bcbc 66f7 86bc e08e 77bc
00000040: a0f2 72bd aab9 59bd d4bd 853d aa61 253d

fc1.weight f4 [120, 20]
0.07588494 0.15827374 0.1543435 -0.1283363 -0.08617705 0.11967546 -0.13930683 0.07095622
-0.14438602 -0.18639362 0.052474663 0.067797 -0.20370668 0.14101885 -0.0045406637 -0.088877216
-0.106624246 -0.10359355 0.19580436 0.118810266 0.19140273 -0.21834789 -0.042909358 -0.1563199
0.021088354 0.1536982 -0.21091434 -0.08004372 -0.13385747 0.06969788 0.16408002 -0.09374709
0.09040779 -0.15819776 -0.13785642 -0.05258662 0.14459385 -0.04785141 -0.007480966 0.045795426
0.01600333 -0.08004047 0.10415085 -0.08171352 -0.023910526 0.0018787063 -0.120000385 -0.15005091
0.15125018 -0.19069742 0.055317458 -0.07013469 0.052692857 0.056287516 -0.031148752 0.06940879
0.1559888 -0.021177245 0.061985146 -0.14207925 -0.024377605 0.2207755 0.104677774 -0.020681657
0.087451786 -0.104323536 0.034927018 0.17131622 -0.071842834 -0.18196142 0.2056923 0.06101968
-0.20071936 0.1359439 0.071736716 -0.15296465 -0.18542978 -0.16070853 0.034544643 -0.06198329
-0.07628875 -0.14857528 0.10820882 -0.14423688 -0.15398477 -0.023015123 0.14258839 -0.1738706
0.20130207 -0.19142544 0.019112593 -0.02777674 0.027540185 0.12461838 0.03209469 -0.18080418
0.15980883 0.17339261 0.049125835 -0.1420262 0.17980744 0.0019865546 -0.081393294 -0.19656816
0.22384107 0.18972543 0.014348185 0.048804082 0.22711681 -0.18043783 -0.1606141 -0.1980841
0.18082282 -0.09680017 -0.048952162 -0.10751398 0.11236555 -0.014156734 0.1557296 0.22526434
0.18001045 -0.06849391 0.10935597 -0.113156356 0.25296694 0.2093575 0.22139479 -0.06020096
0.05397646 -0.2173796 -0.05886757 0.22087952 0.009275661 -0.00087867567 0.086272456 0.10404269
0.13613035 0.18449374 -0.010817054 -0.19895574 -0.034959458 0.023859993 -0.13498539 0.172476
0.23658217 -0.10041428 0.077822305 -0.209765 -0.05982465 -0.106800534 0.16325717 0.14472573
-0.21381599 0.12799937 0.21487644 0.21159239 0.14138238 0.13577077 0.01798338 -0.16312693
-0.16247544 -0.022335172 0.16626336 -0.2191093 0.020597495 0.16825764 -0.038203415 0.18728931
-0.1326595 0.010935212 0.06229131 -0.15099975 0.21328633 0.046814214 0.124468595 0.08160619
-0.05120637 -0.19728664 -0.12997778 -0.05640618 -0.036698 0.2133281 0.22205262 0.16410546
0.131511 0.008462686 -0.13526085 0.10099671 -0.02970172 -0.21335025 -0.21030797 0.0025503703
0.18040779 0.069869116 0.02400016 -0.056793936 -0.14255771 -0.038590394 0.1467921 0.01744568
0.19685116 -0.10938489 -0.049988896 0.023458002 0.118548445 -0.07920645 0.21105637 -0.14164063
-0.056176472 0.22718857 -0.10034653 -0.19660749 0.025304979 -0.0174274 0.08296061 -0.0035023356
-0.067385904 -0.13701174 -0.07239362 0.20347498 -0.055768374 0.033088457 -0.19826709 0.17218338
-0.22347274 0.17187889 0.19419679 -0.010442293 0.094561115 -0.076895565 -0.18926314 0.16906197
-0.22145064 0.008513145 0.0053817336 -0.15343216 0.16901958 0.119667135 0.14279158 -0.042048782
0.05091984 0.07912997 0.01765752 -0.20873018 0.007002826 -0.21882948 -0.21996379 0.1597679
-0.09186773 -0.011013034 0.16846204 0.09876807 -0.09705282 -0.14170676 0.1820869 0.026059708
00000000: 9069 9b3d 8312 223e 390c 1e3e 976a 03be
00000010: 987d b0bd 6818 f53d 73a6 0ebe 7f51 913d
00000020: eed9 13be f8dd 3ebe acef 563d 27d9 8a3d
00000030: 7c98 50be 3f67 103e d9c9 94bb 4205 b6bd
00000040: d05d dabd db28 d4bd f080 483e cc52 f33d
00000050: 14ff 433e 9796 5fbe b9c1 2fbd 5312 20be
00000060: 7cc1 ac3c 1063 1d3e eef9 57be f6ed a3bd
00000070: ef11 09be c3bd 8e3d 9804 283e 79fe bfbd
00000080: b827 b93d 98fe 21be 3c2a 0dbe 1165 57bd
00000090: 6910 143e d7ff 43bd e422 f5bb fc93 3b3d
000000a0: 6a19 833c 42ec a3bd 0a4d d53d 6b59 a7bd
000000b0: 02e0 c3bc ec3e f63a c3c2 f5bd f2a6 19be
000000c0: 54e1 1a3e 2f46 43be 8f94 623d c7a2 8fbd
000000d0: 77d4 573d bd8d 663d ab2b ffbc 3226 8e3d
000000e0: 87bb 1f3e e77b adbc 23e4 7d3d 397d 11be
000000f0: 8bb3 c7bc f912 623e 4d61 d63d 946c a9bc
00000100: ec19 b33d 94a7 d5bd a20f 0f3d 856d 2f3e
00000110: 5622 93bd 1854 3abe 01a1 523e c6ef 793d
00000120: 6089 4dbe e134 0b3e b3ea 923d c4a2 1cbe
00000130: 4ee1 3dbe c790 24be af7e 0d3d 31e2 7dbd
00000140: 473d 9cbd 1e24 18be 969c dd3d d5b2 13be
00000150: 2fae 1dbe 368a bcbc b102 123e 220b 32be
00000160: 2122 4e3e 0805 44be 0392 9c3c 0c8c e3bc
00000170: f49b e13c ec37 ff3d b975 033d bb24 39be
00000180: eda4 233e d58d 313e 2c38 493d 516f 11be
00000190: 711f 383e db30 023b 87b1 a6bd 2a49 49be
000001a0: 9836 653e 6247 423e a614 6b3c cae6 473d
000001b0: 4f91 683e b2c4 38be 0678 24be 8fd6 4abe
000001c0: 9e29 393e 2b3f c6bd 1082 48bd 4a30 dcbd
000001d0: e91f e63d a5f1 67bc 9577 1f3e b2ab 663e
000001e0: a954 383e 8946 8cbd 06f6 df3d 85be e7bd
000001f0: e284 813e d061 563e 51b5 623e 4895 76bd
00000200: 6c16 5d3d c298 5ebe 1f1f 71bd 3e2e 623e
00000210: f1f8 173c ed56 66ba 9daf b03d 5514 d53d
00000220: c165 0b3e edeb 3c3e 033a 31bc 0ebb 4bbe
00000230: a631 0fbd 0876 c33c 9c39 0abe 8c9d 303e
00000240: 9942 723e 01a6 cdbd 4d61 9f3d a3cc 56be
00000250: b10a 75bd 3dba dabd e32c 273e fb32 143e
00000260: 94f2 5abe 4412 033e 9208 5c3e adab 583e
00000270: 8bc6 103e 7e07 0b3e e251 933c bf0a 27be
00000280: f65f 26be 40f8 b6bc f140 2a3e 305e 60be
00000290: 14bc a83c bb4b 2c3e 2f7b 1cbd c5c8 3f3e
000002a0: e4d7 07be 9a29 333c 2c25 7f3d ae9f 1abe
000002b0: bb67 5a3e 43c0 3f3d 64e9 fe3d 2521 a73d
000002c0: c5bd 51bd 8205 4abe e518 05be 2b0a 67bd
000002d0: a450 16bd ae72 5a3e c361 633e 430b 283e
000002e0: d2aa 063e 14a7 0a3c d281 0abe 5dd7 ce3d
000002f0: 0651 f3bc 7d78 5abe f95a 57be 1d24 273b
00000300: d2bc 383e 8a17 8f3d fc9b c43c c2a0 68bd
00000310: a6fa 11be f610 1ebd ab50 163e 3eea 8e3c
00000320: 5a93 493e 2f05 e0bd 28c1 4cbd ff2a c03c
00000330: 87c9 f23d fe36 a2bd 291f 583e 3e0a 11be
00000340: 4d19 66bd 1fa4 683e 7b82 cdbd 7953 49be
00000350: 634c cf3c e8c3 8ebc 41e7 a93d 7187 65bb
00000360: 9f01 8abd ce4c 0cbe 1b43 94bd bf5b 503e
00000370: 616d 64bd c387 073d 8706 4bbe d750 303e
00000380: 0ad6 64be 0501 303e 86db 463e 2716 2bbc
00000390: 42a9 c13d 6c7b 9dbd 32ce 41be 951e 2d3e
000003a0: f5c3 62be b87a 0b3c 4159 b03b 521d 1dbe
000003b0: 7813 2d3e 0b14 f53d f537 123e 583b 2cbd
000003c0: 5291 503d e50e a23d 81a6 903c 5dbd 55be
000003d0: f677 e53b d614 60be 303e 61be 329a 233e
000003e0: 2625 bcbd 0370 34bc 5081 2c3e ea46 ca3d
000003f0: a1c3 c6bd 941b 11be fd74 3a3e 2b7b d53c

fc1.bias f4 [120]
-0.04459292 -0.01751268 0.015500017 -0.034127913 0.03867966 -0.19932894 0.19971247 0.11929067
-0.22158226 0.0987465 0.08458422 -0.10034998 0.011359508 -0.12904721 0.10799805 -0.12708248
0.05702128 -0.110952295 0.051876523 -0.12082499 0.10513025 -0.18213147 -0.19322276 -0.108679034
-0.17153767 -0.093359366 -0.18097699 0.1556205 -0.017190423 -0.06601838 -0.20805733 -0.18072763
0.082103886 -0.019429447 0.06950551 -0.21373647 0.011085517 0.21394289 -0.017684747 -0.12699078
-0.19593872 -0.08158664 0.04147009 0.19871989 0.05267473 0.12045796 0.06815168 -0.07588242
0.18185249 -0.050068848 0.06502086 -0.059006304 -0.11698674 0.064636424 -0.029383903 0.107222624
-0.09031048 -0.10835203 0.18531138 -0.13051678 0.091081806 -0.21132734 -0.08596432 -0.084922545
0.19723876 -0.17649892 0.15613167 -0.03358945 -0.21578145 -0.10310264 -0.025355546 -0.12597133
-0.08914409 0.20526566 -0.13522626 -0.15399861 -0.08801337 -0.03890314 0.071772456 -0.075459234
0.081810646 -0.03370668 -0.16551757 -0.18712361 -0.18304291 -0.16477217 -0.1377199 0.11532941
0.099329166 0.14471602 0.1668922 -0.074480526 -0.16688713 -0.1097168 -0.10856188 -0.105071306
0.15239699 0.15594819 -0.097743474 -0.17244649 -0.18296374 0.16637594 0.15824021 -0.16803269
0.005059971 0.2272393 -0.13644749 0.19214466 0.03721658 0.07706405 -0.11736553 0.051133696
0.22902828 0.19658417 -0.068531364 0.06708276 -0.14644258 -0.14312717 0.0743453 0.094563566
00000000: 11a7 36bd c076 8fbc c9f3 7d3c b6c9 0bbd
00000010: 906e 1e3d e31c 4cbe 6d81 4c3e ab4e f43d
00000020: 76e6 62be 9b3b ca3d 7e3a ad3d 4a84 cdbd
00000030: 3b1d 3a3c f424 04be 152e dd3d e921 02be
00000040: 258f 693d f53a e3bd 7a7c 543d 1873 f7bd
00000050: 874e d73d ac80 3abe 30dc 45be 1d93 debd
00000060: 92a7 2fbe 3233 bfbd 0852 39be fb5a 1f3e
00000070: eed2 8cbc a534 87bd fb0c 55be aa10 39be
00000080: 1526 a83d 812a 9fbc e858 8e3d bcdd 5abe
00000090: 07a0 353c d813 5b3e 9adf 90bc df09 02be
000000a0: 29a4 48be e516 a7bd 8bdc 293d 3a7d 4b3e
000000b0: 75c1 573d aab2 f63d 1c93 8b3d 3e68 9bbd
000000c0: 8a37 3a3e fe14 4dbd a829 853d 98b0 71bd
000000d0: be96 efbd 1a60 843d 83b6 f0bc 8997 db3d
000000e0: b3f4 b8bd abe7 ddbd 44c2 3d3e 31a6 05be
000000f0: 1989 ba3d 3266 58be 100e b0bd dfeb adbd
00000100: f5f8 493e 22bc 34be fbe0 1f3e 1795 09bd
00000110: d0f5 5cbe 7a27 d3bd 6fb6 cfbc a1fe 00be
00000120: 2d91 b6bd 2931 523e c178 0abe d0b1 1dbe
00000130: 5b40 b4bd e658 1fbd 70fd 923d 5f8a 9abd
00000140: 578c a73d 0410 0abd 707d 29be 559d 3fbe
00000150: 9a6f 3bbe 09ba 28be 7206 0dbe d331 ec3d
00000160: 176d cb3d 7030 143e cae5 2a3e 3f89 98bd
00000170: 76e4 2abe 34b3 e0bd b155 debd a02f d7bd
00000180: f50d 1c3e e2b0 1f3e bb2d c8bd d095 30be
00000190: d95a 3bbe 745e 2a3e b909 223e c310 2cbe
000001a0: 1dce a53b 6bb1 683e e4b8 0bbe 92c1 443e
000001b0: 6a70 183d c2d3 9d3d 575d f0bd 9171 513d
000001c0: 6486 6a3e 5c4d 493e 2c5a 8cbd b062 893d
000001d0: 0bf5 15be ee8f 12be 5942 983d 8baa c13d

fc2.weight f4 [80, 120]
0.023579076 -0.0899062 -0.0753428 0.0029269434 -0.08886227 -0.07784312 -0.06341696 -0.017102055
0.07936963 -0.051315185 0.07258161 -0.06600038 -0.06822035 -0.003850911 0.0248266 0.021928452
-0.023662157 0.040232737 0.06525191 0.037496198 0.06493736 0.08945097 -0.06152124 0.083919436
0.0622697 0.07431629 0.034622367 0.03973106 -0.07305624 0.045749944 -0.083957836 -0.050281473
0.028257737 0.045149595 -0.0023130614 -0.00799118 -0.041569877 -0.10693753 -0.085673906 -0.024990832
-0.05418507 0.04358144 0.016256565 0.08904291 0.03500651 0.07170723 0.024400515 0.04239315
0.13106929 0.003390803 0.014183584 -0.010163128 0.058247015 0.07866202 0.07181148 0.011506369
0.04436272 -0.07962472 -0.0040989006 0.025579918 0.079742014 0.01699685 0.07140714 -0.003952302
-0.050782714 0.052459843 -0.0769911 -0.005781277 0.03180295 -0.00042918467 0.0074802837 0.036959764
0.047301386 -0.074822955 0.023767125 0.009386589 0.007003399 0.03831745 -0.015459924 0.063482404
0.06616584 0.04482951 0.088874444 0.012347992 -0.068626836 -0.07992575 -0.07299707 0.113528
-0.09516746 0.0040758457 0.12574169 -0.05042096 0.05472958 0.086633526 0.033437137 -0.02710299
0.0360722 0.114870764 0.04336365 0.005124867 0.08873455 0.041333344 0.010980891 -0.013926496
0.0023649852 -0.06415184 0.017450608 0.011868665 0.087578975 0.008689213 0.0815327 -0.042033438
-0.016465425 0.001358828 -0.068972126 -0.02330984 0.013465359 0.088087 0.059976082 -0.01535126
0.093706734 -0.043397535 0.086180046 0.06864163 0.047148023 -0.029624857 -0.04306164 0.06370008
0.0343115 0.05562063 0.0026929937 0.018174164 0.011857498 0.009043524 -0.0016638725 -0.024372067
0.07805362 -0.050175637 0.045292374 0.0131721655 -0.065583445 0.055364985 -0.08148257 -0.050095364
0.07214306 -0.085537404 -0.07684523 -0.08955663 0.052264757 0.073931605 -0.08125242 -0.08313137
-0.014237574 0.031237572 0.04454068 -0.017755639 0.041006055 -0.0322409 -0.0012315273 0.0844522
0.008366868 -0.07940421 0.13553917 0.01703234 0.001783511 -0.061658125 0.10707279 -0.01829557
0.049685515 -0.0014295423 -0.087686904 -0.06602642 -0.022403263 -0.086180694 0.0052808 0.017314559
0.08441855 -0.06772034 0.015808918 0.004372934 0.052649364 -0.07133989 -0.05160457 0.0032739467
0.054901984 -0.07306685 0.10837716 -0.06824199 0.038672805 0.026682392 0.04317133 0.1001101
-0.07854616 -0.005948946 -0.004180197 0.07637415 0.06610177 -0.020105405 0.08719439 0.06633144
0.005689462 0.09770307 0.020857247 -0.080298096 0.03139875 0.05103366 0.032514367 -0.09785916
0.085983805 0.034709744 0.0544993 0.061495416 -0.04832741 -0.08215571 0.016970562 -0.015649071
0.07891904 -0.061640613 -0.05782425 0.0031589791 -0.06418286 -0.04912377 0.037348684 0.04176276
0.027691782 -0.094340034 0.014915991 0.038458172 0.11199386 0.012713346 0.103404865 -0.08473363
0.06272321 0.07472085 -0.069218636 0.0054530287 -0.071426034 -0.05847343 -0.05934423 -0.08301771
-0.042800497 -0.08789705 -0.028740257 -0.0908908 -0.044689234 0.048771694 -0.07553959 -0.06941678
-0.09035811 -0.06802735 -0.078597024 0.00086960196 -0.007659912 -0.029087935 0.01962354 0.048550814
00000000: e828 c13c be20 b8bd 534d 9abd f6d1 3f3b
00000010: 6cfd b5bd 376c 9fbd c0e0 81bd 9c19 8cbc
00000020: 8b8c a23d df2f 52bd aba5 943d 352b 87bd
00000030: 1cb7 8bbd 915f 7cbb 2761 cb3c 4ca3 b33c
00000040: 24d7 c1bc 15cb 243d cba2 853d 9d95 193d
00000050: e1fd 843d 1232 b73d b2fd 7bbd f4dd ab3d
00000060: 830e 7f3d 2433 983d 2fd0 0d3d 09bd 223d
00000070: 839e 95bd 4b64 3b3d 16f2 abbd f2f3 4dbd
00000080: c57c e73c c8ee 383d bb96 17bb 70ed 02bc
00000090: 2d45 2abd 1002 dbbd cd75 afbd 93b9 ccbc
000000a0: 2af1 5dbd 7482 323d 7d2c 853c 215c b63d
000000b0: fc62 0f3d 3ddb 923d 97e3 c73c 71a4 2d3d
000000c0: 0737 063e 3c38 5e3b 4362 683c 4083 26bc
000000d0: 6c94 6e3d 8e19 a13d e611 933d 3685 3c3c
000000e0: afb5 353d 4912 a3bd 1250 86bb fa8c d13c
000000f0: c84f a33d fa3c 8b3c e83d 923d 5082 81bb
00000100: 8901 50bd 22e0 563d 83ad 9dbd de70 bdbb
00000110: cf43 023d 3104 e1b9 2b1d f53b 1f63 173d
00000120: 19bf 413d c73c 99bd 46b3 c23c 35ca 193c
00000130: c57c e53b c2f2 1c3d 9f4b 7dbc 1003 823d
00000140: f581 873d 269f 373d ce03 b63d 3b4f 4a3c
00000150: 3a8c 8cbd 1db0 a3bd 7d7f 95bd 5e81 e83d
00000160: 28e7 c2bd ac8e 853b 6ec2 003e 3586 4ebd
00000170: 202c 603d eb6c b13d 61f5 083d 1707 debc
00000180: 71c0 133d 5d41 eb3d 159e 313d 80ee a73b
00000190: 76ba b53d 274d 293d 32e9 333c f52b 64bc
000001a0: defd 1a3b 0a62 83bd 94f4 8e3c ca74 423c
000001b0: 9b5c b33d 335d 0e3c 9efa a63d 412b 2cbd
000001c0: 80e2 86bc b41a b23a 4241 8dbd 47f4 bebc
000001d0: cf9d 5c3c f566 b43d 7ba9 753d da83 7bbc
000001e0: 51e9 bf3d 9dc1 31bd 2a7f b03d fc93 8c3d
000001f0: 491e 413d d4af f2bc 6761 30bd 3075 823d
00000200: 378a 0c3d 75d2 633d f07c 303b fce1 943c
00000210: f445 423c 4a2b 143c 4c16 daba eea7 c7bc
00000220: 94da 9f3d f884 4dbd 7f84 393d 11d0 573c
00000230: 9d50 86bd 65c6 623d 55e0 a6bd cc30 4dbd
00000240: bebf 933d 3c2e afbd 0861 9dbd 7769 b7bd
00000250: 9213 563d 7469 973d ab67 a6bd c840 aabd
00000260: b744 69bc f0e5 ff3c 4a70 363d 4674 91bc
00000270: f7f5 273d 090f 04bd 336b a1ba 46f5 ac3d
00000280: 3015 093c ad9e a2bd c8ca 0a3e 6887 8b3c
00000290: b3c4 e93a 3b8d 7cbd fb48 db3d 97e0 95bc
000002a0: 0a83 4b3d 7b5f bbba 3195 b3bd dc38 87bd
000002b0: 0c87 b7bc 817f b0bd 900a ad3b 43d7 8d3c
000002c0: a2e3 ac3d f6b0 8abd b481 813c d44a 8f3b
000002d0: dca6 573d a61a 92bd 505f 53bd b68f 563b
000002e0: e7e0 603d 13a4 95bd d8f4 dd3d 75c2 8bbd
000002f0: 6067 1e3d 0895 da3c 6cd4 303d 8606 cd3d
00000300: cfdc a0bd 60ef c2bb 09fa 88bb 0d6a 9c3d
00000310: 5d60 873d 17b4 a4bc f992 b23d c7d8 873d
00000320: ab6e ba3b 8c18 c83d d1dc aa3c 5473 a4bd
00000330: fa9b 003d ac08 513d c92d 053d 626a c8bd
00000340: 4718 b03d ce2b 0e3d a83a 5f3d 9ee2 7b3d
00000350: f6f2 45bd 4141 a8bd d905 8b3c 7b32 80bc
00000360: 4ea0 a13d de7a 7cbd 1fd9 6cbd e006 4f3b
00000370: 4e72 83bd 0236 49bd effa 183d 6e0f 2b3d
00000380: e0d9 e23c 5935 c1bd 3362 743c 5186 1d3d
00000390: 095d e53d a34b 503c eec5 d33d d388 adbd
000003a0: 0775 803d 3f07 993d 80c2 8dbd 52af b23b
000003b0: d047 92bd d681 6fbd ef12 73bd 3005 aabd
000003c0: 934f 2fbd 5e03 b4bd b070 ebbc f524 babd
000003d0: 0f0c 37bd d4c4 473d 80b4 9abd 622a 8ebd
000003e0: ac0d b9bd ec51 8bbd 7af7 a0bd 00f6 633a
000003f0: 0000 fbbb d249 eebc 8cc1 a03c 38dd 463d

fc2.bias f4 [80]
0.11557534 -0.06293383 -0.05449487 0.023348756 0.001155577 0.038767755 0.0086328015 -0.0006152716
-0.007045732 0.011758457 0.10956155 0.07953299 -0.01625526 0.097191736 -0.085535884 -0.0172561
-0.026552666 -0.06534596 -0.009866765 0.06671544 0.09596217 -0.07482165 -0.018684328 0.094058976
-0.02341189 -0.0069929673 0.115905985 -0.050791234 0.014720767 -0.07775976 0.0064226445 -0.065470636
-0.020955505 -0.06058894 -0.091397665 -0.07589363 -0.014941523 0.021879144 0.009012136 0.055579063
-0.00016639216 0.062051002 -0.06909597 -0.084586255 0.065751255 -0.042655867 -0.033603605 0.06414727
0.11931158 0.08485617 -0.030087752 -0.014384363 0.14544615 -0.028832268 0.012131696 -0.006071456
0.08690805 -0.04967545 0.03225603 0.10171988 -0.04673631 -0.10615803 -0.050231364 0.08843712
0.058666117 0.014892432 0.0047691627 0.10822409 0.01601515 0.025999751 -0.08122728 -0.02100315
-0.06798422 -0.049505986 0.037956346 0.0677863 -0.08607125 -0.083727635 0.010953332 -0.06928968
00000000: c4b2 ec3d 74e3 80bd 0336 5fbd e445 bf3c
00000010: bb76 973a f0ca 1e3d 9870 0d3c 2e4a 21ba
00000020: e2df e6bb 8ba6 403c ce61 e03d 31e2 a23d
00000030: c029 85bc 760c c73d 702d afbd aa5c 8dbc
00000040: fa84 d9bc 1ad4 85bd 36a8 21bc 1ba2 883d
00000050: d087 c43d 183c 99bd e00f 99bc fea1 c03d
00000060: 4bca bfbc 4325 e5bb 1e60 ed3d 780a 50bd
00000070: 5f2f 713c 8240 9fbd 0c75 d23b 7815 86bd
00000080: e1aa abbc 1c2c 78bd b32e bbbd 1f6e 9bbd
00000090: 4acd 74bc e43b b33c a3a7 133c dfa6 633d
000000a0: 8e79 2eb9 3129 7e3d 3082 8dbd 8f3b adbd
000000b0: 98a8 863d ebb7 2ebd efa3 09bd a55f 833d
000000c0: a159 f43d 12c9 ad3d 977a f6bc 64ac 6bbc
000000d0: d6ef 143e a631 ecbc 05c4 463c 10f3 c6bb
000000e0: d9fc b13d 7c78 4bbd e61e 043d 8352 d03d
000000f0: 936e 3fbd 6269 d9bd 67bf 4dbd 851e b53d
00000100: e24b 703d 63ff 733c a346 9c3b 97a4 dd3d
00000110: 3432 833c 6efd d43c 7d5a a6bd cc0e acbc
00000120: 503b 8bbd cac6 4abd 1d78 1b3d 8bd3 8a3d
00000130: 2046 b0bd 6579 abbd 9b75 333c bfe7 8dbd

fc3.weight f4 [10, 80]
-0.17612605 0.17434911 0.08358431 -0.07836233 0.015118272 0.0034443922 0.09674925 0.012694835
0.108587705 0.05993512 0.13949382 -0.20904464 -0.05126924 -0.005436635 0.0455964 0.020891821
0.04338738 0.019354656 0.14867547 -0.15779386 0.08778874 0.05001512 0.13272327 0.07870137
-0.108354695 0.045180093 0.07427657 0.11706258 0.01390303 0.0078034843 0.10711777 0.09079617
0.050820034 0.10822787 0.039667927 0.05143026 0.0020101178 0.033993952 0.08320838 -0.03729053
-0.10204747 0.13761145 -0.0773251 0.05279854 -0.14441924 0.13921188 -0.049104635 -0.115017354
0.07033531 0.035064865 -0.038291324 0.08243274 -0.01174782 -0.06199902 0.11756593 -0.04833647
-0.05589477 -0.08099272 -0.034217533 -0.13319911 -0.040690504 -0.053717922 0.031137995 0.11074904
-0.023747224 -0.1001491 -0.032913763 -0.035762683 0.028648915 0.10289481 0.09366465 -0.009024285
-0.022493325 0.0428477 0.013489329 -0.0040398175 0.08136724 0.052410938 -0.13147439 2.6429072e-05
0.015029099 0.12623961 0.10136858 0.06290674 0.04732591 -0.0100401435 -0.0747849 0.06494373
0.04270918 -0.023480097 -0.08163793 0.038326986 0.10800908 -0.065962315 0.048346892 0.036944207
0.0797969 0.008931436 -0.10194416 -0.1354981 -0.00045757164 -0.09132786 -0.08862063 -0.06290639
-0.08054766 0.021191582 -0.069314115 0.066805325 0.108302206 0.0032845566 0.00726281 0.09619721
-0.018553602 0.11565369 0.15282612 -0.07664199 0.12941271 0.08541022 -0.08807787 -0.10979321
0.0602412 -0.10304013 -0.06542191 0.023172155 0.056968715 0.102979824 0.08516369 -0.068051435
0.032662228 -0.10124643 0.016301572 -0.05210498 -0.16277707 0.09803015 0.05463546 -0.07880546
-0.032804053 -0.025957808 -0.04924947 0.023359148 0.08627093 0.10043615 0.14233647 0.05456054
-0.05907607 -0.021895863 -0.08513758 -0.15355812 -0.05439961 0.02625397 -0.06614232 0.09456779
0.016317517 -0.06336784 0.14839457 -0.08374558 -0.0755455 -0.07115158 0.16259706 0.04844242
0.10656229 -0.10654041 -0.005312279 -0.0011968808 0.0907592 0.05216865 0.092744984 -0.018108904
-0.015219589 0.016631832 0.08937763 0.013891109 -0.059063733 -0.05692854 0.08234907 -0.031496637
-0.011795424 0.032186173 0.010535179 0.03302706 0.053160835 0.004981607 0.06839156 0.00375417
0.032363947 0.083394036 0.11289088 0.06796571 0.020651747 -0.109688975 -0.009800616 -0.0035249135
-0.04575173 -0.0955583 -0.05471384 -0.09389155 0.0006017904 0.10571532 0.058948427 -0.05576138
-0.054829054 -0.046225686 0.0648445 -0.05933802 0.085356966 -0.07338984 -0.043283917 0.072048336
0.06781947 0.0012402625 0.11644312 -0.008835979 -0.02882791 -0.06996229 -0.061466783 -0.1093783
0.012763133 0.09799655 -0.040000025 0.13952355 0.018493652 -0.1040843 -0.014371296 -0.0524978
0.013748921 0.11229282 0.10352914 0.00023277686 -0.064456694 0.014353447 0.05105662 0.0071638855
0.09694706 -0.036149025 0.039394524 0.057139423 -0.0456935 -0.02392245 0.0015835982 -0.034594413
-0.032193482 -0.004772749 0.03247215 0.0073058857 0.013127135 -0.01675677 0.00061519595 -0.05908586
-0.103414945 0.09958744 -0.009233892 0.14049552 -0.015809344 0.084874064 0.037402652 0.02433299
00000000: 635a 34be 9388 323e 402e ab3d 6e7c a0bd
00000010: a1b2 773c 50bb 613b 7924 c63d fffd 4f3c
00000020: 3b63 de3d 877e 753d 78d7 0e3e cc0f 56be
00000030: b2ff 51bd cd25 b2bb 4ac3 3a3d 5325 ab3c
00000040: f7b6 313d a88d 9e3c 623e 183e b794 21be
00000050: 95ca b33d a8dc 4c3d 9ce8 073e 2f2e a13d
00000060: 11e9 ddbd c30e 393d 501e 983d 82be ef3d
00000070: 89c9 633c 5fb4 ff3b 9060 db3d 58f3 b93d
00000080: ab28 503d 93a6 dd3d d67a 223d 89a8 523d
00000090: 2ebc 033b 3e3d 0b3d 2869 aa3d f4bd 18bd
000000a0: 44fe d0bd 04ea 0c3e 9f5c 9ebd 4843 583d
000000b0: a3e2 13be 8f8d 0e3e f121 49bd 388e ebbd
000000c0: f60b 903d 2da0 0f3d 5dd7 1cbd 7fd2 a83d
000000d0: ee79 40bc aff2 7dbd 68c6 f03d 76fc 45bd
000000e0: eaf1 64bd 83df a5bd af27 0cbd 5965 08be
000000f0: 16ab 26bd 5307 5cbd 1c15 ff3c 65d0 e23d
00000100: 8a89 c2bc f91a cdbd 95d0 06bd e47b 12bd
00000110: 21b1 ea3c 84ba d23d 41d3 bf3d 98da 13bc
00000120: ec43 b8bc 1281 2f3d 5902 5d3c 7260 84bb
00000130: dea3 a63d daac 563d 39a1 06be 00b4 dd37
00000140: 9c3c 763c f544 013e 549a cf3d 40d5 803d
00000150: d0d8 413d 6a7f 24bc d328 99bd 3801 853d
00000160: d2ef 2e3d 5559 c0bc c931 a7bd c2fc 1c3d
00000170: dd33 dd3d 4017 87bd 6407 463d cf52 173d
00000180: 8f6c a33d 2855 123c 1ac8 d0bd 04c0 0abe
00000190: 3ae6 efb9 1a0a bbbd bc7e b5bd 11d5 80bd
000001a0: 2cf6 a4bd f899 ad3c 8ff4 8dbd 3bd1 883d
000001b0: 8ccd dd3d b741 573b defc ed3b 0b03 c53d
000001c0: b9fd 97bc d8db ec3d 737e 1c3e 7af6 9cbd
000001d0: c484 043e 8eeb ae3d 2c62 b4bd 43db e0bd
000001e0: 7abf 763d b406 d3bd ecfb 85bd 88d3 bd3c
000001f0: 0758 693d 16e7 d23d 4d6a ae3d 8d5e 8bbd
00000200: d4c8 053d 4a5a cfbd e08a 853c 086c 55bd
00000210: 08af 26be 08c4 c83d 6fc9 5f3d c264 a1bd
00000220: 8b5d 06bd 78a5 d4bc d0b9 49bd af5b bf3c
00000230: d0ae b03d 78b1 cd3d a7c0 113e df7a 5f3d
00000240: c0f9 71bd f45e b3bc 9d5c aebd 573e 1dbe
00000250: 20d2 5ebd 9112 d73c a075 87bd c2ac c13d
00000260: 50ac 853c 00c7 81bd bff4 173e cd82 abbd
00000270: 99b7 9abd ebb7 91bd d87f 263e 8f6b 463d
00000280: 543d da3d dc31 dabd a012 aebb a8e0 9cba
00000290: f6df b93d cbae 553d 15f1 bd3d 2059 94bc
000002a0: 955b 79bc 7b3f 883c 9e0b b73d 8997 633c
000002b0: d0ec 71bd e72d 69bd a1a6 a83d 9e02 01bd
000002c0: 9841 41bc a6d5 033d be9b 2c3c 6247 073d
000002d0: 2dbf 593d c03c a33b e010 8c3d 8508 763b
000002e0: 0f90 043d 7eca aa3d 5533 e73d 9b31 8b3d
000002f0: da2d a93c 9da4 e0bd c392 20bc 3c02 67bb
00000300: 2b66 3bbd 12b4 c3bd 9f1b 60bd 374a c0bd
00000310: 78c1 1d3a 4681 d83d e873 713d 0b66 64bd
00000320: 6e94 60bd 2557 3dbd 31cd 843d 6c0c 73bd
00000330: a2cf ae3d 6a4d 96bd 7a4a 31bd 148e 933d
00000340: efe4 8a3d 4e90 a23a bb79 ee3d c8c4 10bc
00000350: 8228 ecbc 6448 8fbd 98c4 7bbd bb01 e0bd
00000360: 761c 513c 6ab2 c83d 11d7 23bd 43df 0e3e
00000370: 0080 973c 262a d5bd 9675 6bbc ef07 57bd
00000380: 2843 613c c7f9 e53d 1607 d43d 9015 7439
00000390: df01 84bd b82a 6b3c bf20 513d 07bf ea3b
000003a0: 2e8c c63d 0011 14bd 275c 213d 070b 6a3d
000003b0: 1c29 3bbd 04f9 c3bc bd90 cf3a dfb2 0dbd
000003c0: 50dd 03bd b864 9cbb 8401 053d 3666 ef3b
000003d0: 3213 573c 7e45 89bc 1a45 213a 0404 72bd
000003e0: 37cb d3bd 80f4 cb3d c049 17bc 0fde 0f3e
000003f0: 9982 81bc 74d2 ad3d 8633 193d fb55 c73c

fc3.bias f4 [10]
-0.10436218 -0.19222905 0.15427902 0.07645708 0.23768216 0.03854255 0.101075344 0.037602775
-0.1093434 -0.19846532
00000000: d7bb d5bd b1d7 44be 52fb 1d3e 8895 9c3d
00000010: f462 733e cbde 1d3d 9700 cf3d 5e05 1a3d
00000020: 6fef dfbd 7e3a 4bbe
